datasets/models/mushroom/mushroom.onnx (onnx, 367657 bytes, 21 tensors)

onnx::Conv_246_quantized i1 [16, 3, 3, 3]
4 27 50 10 13 5 15 -34
-73 21 23 35 9 -5 -16 2
-46 -79 -30 -24 -21 -19 8 11
-7 14 10 13 39 19 -27 -73
-39 13 33 19 27 69 44 -50
-127 -74 27 54 32 1 23 11
-8 -36 -14 7 18 2 -40 -10
2 -12 -4 2 -2 -2 -14 -42
-8 19 -17 -6 10 8 9 -2
-24 5 11 -1 3 -2 4 0
-19 33 3 -26 -4 -8 11 -27
7 18 70 -4 -62 -17 -12 29
-61 11 44 16 3 -17 1 -4
9 -15 3 5 0 0 0 0
0 0 0 0 0 4 5 3
5 5 4 2 3 1 -3 -3
-1 -3 -3 -1 -2 -1 0 28
-59 36 46 -93 47 11 -59 52
58 -90 31 77 -124 50 30 -91
48 13 -23 17 31 -59 26 -2
-29 28 -12 -24 -17 -2 -1 1
14 24 17 -20 -36 -27 -1 0
1 22 34 26 -5 -15 -10 -1
1 2 6 13 8 0 -8 5
28 -58 34 27 -51 31 9 -22
16 53 -115 63 49 -101 47 7
0 -1 16 -30 16 7 -28 15
13 -1 -12 12 1 -13 12 1
-13 17 -1 -13 16 0 -16 13
0 -15 8 -1 -7 6 0 -7
7 1 -7 1 -3 3 -1 -10
-4 6 -5 5 2 -2 0 0
00000000: 041b 320a 0d05 0fde b715 1723 09fb f002
00000010: d2b1 e2e8 ebed 080b f90e 0a0d 2713 e5b7
00000020: d90d 2113 1b45 2cce 81b6 1b36 2001 170b
00000030: f8dc f207 1202 d8f6 02f4 fc02 fefe f2d6
00000040: f813 effa 0a08 09fe e805 0bff 03fe 0400
00000050: ed21 03e6 fcf8 0be5 0712 46fc c2ef f41d
00000060: c30b 2c10 03ef 01fc 09f1 0305 0000 0000
00000070: 0000 0000 0004 0503 0505 0402 0301 fdfd
00000080: fffd fdff feff 001c c524 2ea3 2f0b c534
00000090: 3aa6 1f4d 8432 1ea5 300d e911 1fc5 1afe
000000a0: e31c f4e8 effe ff01 0e18 11ec dce5 ff00
000000b0: 0116 221a fbf1 f6ff 0102 060d 0800 f805
000000c0: 1cc6 221b cd1f 09ea 1035 8d3f 319b 2f07
000000d0: 00ff 10e2 1007 e40f 0dff f40c 01f3 0c01
000000e0: f311 fff3 1000 f00d 00f1 08ff f906 00f9
000000f0: 0701 f901 fd03 fff6 fc06 fb05 02fe 0000

onnx::Conv_249_quantized i1 [32, 16, 3, 3]
6 6 3 -4 -9 -8 3 4
1 1 -2 -1 9 23 12 1
2 8 0 -3 -2 4 5 8
0 -2 -1 -1 -2 -2 2 10
0 -7 -5 -1 0 -2 -2 0
-3 -2 2 2 1 0 -1 -1
1 0 -2 0 -2 -2 -3 -5
-6 8 16 17 -12 -18 -15 -1
2 3 -1 -3 -4 3 3 3
1 2 3 -2 -1 -1 2 3
-3 2 4 2 1 2 1 -2
-1 -1 1 1 0 2 2 2
1 0 0 2 0 -1 2 0
0 0 -1 -1 1 1 2 0
0 1 0 0 1 3 8 5
-18 -43 -25 6 9 -1 0 0
0 1 -2 -1 4 1 -1 1
2 1 5 -5 -11 3 6 -1
9 11 6 3 5 1 -15 -16
-7 -1 -4 -3 3 2 3 -2
-13 0 -7 -15 -12 3 13 13
1 6 3 0 4 7 1 -7
-7 5 3 -7 -2 0 0 -1
-3 -1 2 3 3 1 -1 -3
3 4 4 1 1 3 -33 -57
-35 5 8 1 13 37 22 -1
0 1 -1 2 1 1 -6 -3
0 2 -3 4 8 1 -1 -1
6 2 3 0 6 13 4 -5
-5 -5 3 2 0 3 4 2
1 2 0 3 1 2 2 0
1 1 -1 0 2 0 1 3
00000000: 0606 03fc f7f8 0304 0101 feff 0917 0c01
00000010: 0208 00fd fe04 0508 00fe ffff fefe 020a
00000020: 00f9 fbff 00fe fe00 fdfe 0202 0100 ffff
00000030: 0100 fe00 fefe fdfb fa08 1011 f4ee f1ff
00000040: 0203 fffd fc03 0303 0102 03fe ffff 0203
00000050: fd02 0402 0102 01fe ffff 0101 0002 0202
00000060: 0100 0002 00ff 0200 0000 ffff 0101 0200
00000070: 0001 0000 0103 0805 eed5 e706 09ff 0000
00000080: 0001 feff 0401 ff01 0201 05fb f503 06ff
00000090: 090b 0603 0501 f1f0 f9ff fcfd 0302 03fe
000000a0: f300 f9f1 f403 0d0d 0106 0300 0407 01f9
000000b0: f905 03f9 fe00 00ff fdff 0203 0301 fffd
000000c0: 0304 0401 0103 dfc7 dd05 0801 0d25 16ff
000000d0: 0001 ff02 0101 fafd 0002 fd04 0801 ffff
000000e0: 0602 0300 060d 04fb fbfb 0302 0003 0402
000000f0: 0102 0003 0102 0200 0101 ff00 0200 0103

onnx::Conv_252_quantized i1 [64, 32, 1, 1]
0 -4 -5 1 4 -7 2 -6
-1 -16 3 -2 3 -17 2 -3
-4 3 -4 4 0 -3 2 -2
-4 -13 2 -17 -2 2 0 2
-19 3 2 25 -4 -14 4 -4
27 6 -8 30 -5 -6 -12 6
-29 5 0 -5 1 16 -27 -1
-8 1 0 0 -16 0 -4 -13
3 3 20 -6 17 -24 9 2
-18 -13 8 -6 -9 19 -11 -12
-74 2 -5 -2 2 1 11 -14
28 4 1 0 -56 18 -21 -26
0 0 0 0 0 -1 -1 0
0 0 -1 0 0 1 0 0
0 0 0 0 12 0 0 0
0 -1 13 0 0 1 0 0
-8 -2 1 -1 -3 -3 0 0
-2 1 -5 -2 -4 1 -1 1
-1 -4 1 -2 1 0 -10 0
0 0 1 0 -5 -1 0 0
1 5 -10 18 -6 -15 -2 -1
23 5 -1 20 4 0 -45 7
-25 17 12 -41 3 1 -6 -1
3 -3 0 4 3 0 -26 -46
-6 9 8 -1 -1 -58 -16 -35
3 -3 -9 -4 -24 -21 4 -66
-11 -5 22 -3 -15 -3 -9 38
-9 -40 -23 -22 -4 105 14 0
22 36 -3 5 13 -35 -53 23
22 8 -2 17 7 7 11 2
6 12 2 15 -10 -9 21 -24
-5 3 -13 11 10 -7 -4 15
00000000: 00fc fb01 04f9 02fa fff0 03fe 03ef 02fd
00000010: fc03 fc04 00fd 02fe fcf3 02ef fe02 0002
00000020: ed03 0219 fcf2 04fc 1b06 f81e fbfa f406
00000030: e305 00fb 0110 e5ff f801 0000 f000 fcf3
00000040: 0303 14fa 11e8 0902 eef3 08fa f713 f5f4
00000050: b602 fbfe 0201 0bf2 1c04 0100 c812 ebe6
00000060: 0000 0000 00ff ff00 0000 ff00 0001 0000
00000070: 0000 0000 0c00 0000 00ff 0d00 0001 0000
00000080: f8fe 01ff fdfd 0000 fe01 fbfe fc01 ff01
00000090: fffc 01fe 0100 f600 0000 0100 fbff 0000
000000a0: 0105 f612 faf1 feff 1705 ff14 0400 d307
000000b0: e711 0cd7 0301 faff 03fd 0004 0300 e6d2
000000c0: fa09 08ff ffc6 f0dd 03fd f7fc e8eb 04be
000000d0: f5fb 16fd f1fd f726 f7d8 e9ea fc69 0e00
000000e0: 1624 fd05 0ddd cb17 1608 fe11 0707 0b02
000000f0: 060c 020f f6f7 15e8 fb03 f30b 0af9 fc0f

onnx::Conv_255_quantized i1 [64, 1, 3, 3]
-11 -1 4 -16 15 27 -9 12
18 17 9 0 6 -10 -11 -3
-12 -1 1 3 -1 4 12 6
-5 1 3 -49 -67 -53 -33 26
39 -8 67 78 -20 -29 -11 -43
1 52 -34 44 74 -1 6 3
6 18 9 2 10 4 1 2
1 1 6 3 1 5 3 8
7 2 10 15 5 5 10 6
2 4 3 4 7 4 4 4
0 -18 -42 -29 4 -9 -27 30
54 24 -14 -21 3 -21 -22 11
5 9 24 1 4 3 3 9
5 4 9 3 2 -4 -4 -6
-13 -6 -4 -7 -1 4 19 22
-11 5 27 -15 -19 2 -11 -20
-26 17 18 -33 29 61 10 -2
-5 -3 5 20 16 7 24 21
-8 -20 -17 29 95 61 -17 -35
-30 -1 -5 -3 -6 -8 -2 -4
-3 1 -7 -8 -7 -12 -13 -12
-9 -13 -4 2 -2 -1 -7 -18
-14 -6 -14 -8 9 13 0 13
-11 -28 5 -26 -26 12 24 16
-4 -15 -8 -18 -46 -27 -2 -7
-1 -9 -15 -7 -5 -10 -5 0
3 2 3 10 5 -1 5 1
3 4 3 4 12 10 1 7
6 -2 -4 -4 -4 -12 -14 -6
-12 -11 -5 0 -3 -2 13 8
-6 7 7 6 -7 3 5 -14
-10 7 0 -8 34 48 55 45
00000000: f5ff 04f0 0f1b f70c 1211 0900 06f6 f5fd
00000010: f4ff 0103 ff04 0c06 fb01 03cf bdcb df1a
00000020: 27f8 434e ece3 f5d5 0134 de2c 4aff 0603
00000030: 0612 0902 0a04 0102 0101 0603 0105 0308
00000040: 0702 0a0f 0505 0a06 0204 0304 0704 0404
00000050: 00ee d6e3 04f7 e51e 3618 f2eb 03eb ea0b
00000060: 0509 1801 0403 0309 0504 0903 02fc fcfa
00000070: f3fa fcf9 ff04 1316 f505 1bf1 ed02 f5ec
00000080: e611 12df 1d3d 0afe fbfd 0514 1007 1815
00000090: f8ec ef1d 5f3d efdd e2ff fbfd faf8 fefc
000000a0: fd01 f9f8 f9f4 f3f4 f7f3 fc02 feff f9ee
000000b0: f2fa f2f8 090d 000d f5e4 05e6 e60c 1810
000000c0: fcf1 f8ee d2e5 fef9 fff7 f1f9 fbf6 fb00
000000d0: 0302 030a 05ff 0501 0304 0304 0c0a 0107
000000e0: 06fe fcfc fcf4 f2fa f4f5 fb00 fdfe 0d08
000000f0: fa07 0706 f903 05f2 f607 00f8 2230 372d

onnx::Conv_258_quantized i1 [32, 64, 3, 3]
-2 -3 -7 -10 -9 0 4 2
-1 0 5 -2 2 6 -2 -1
-3 -5 -1 1 4 2 0 -5
2 -1 -5 0 8 -3 4 2
-4 11 5 2 4 -6 7 -3
-2 7 -4 4 -14 4 -1 -1
-4 -15 -10 -8 0 1 -4 -5
-2 5 5 2 7 13 8 4
0 -5 -4 -8 -3 -5 -1 -5
1 -8 0 -6 14 12 -3 -3
-7 -1 0 4 -4 -18 -1 -2
-3 1 2 0 -2 -1 -5 -7
-4 -10 6 -11 -12 -2 -15 18
0 -4 12 0 -6 -1 2 8
3 -4 -3 -1 -2 0 1 1
0 -2 6 -2 -6 -3 4 -9
7 4 3 5 3 1 0 3
10 0 -2 -33 6 4 21 4
-1 -4 -1 4 15 5 -6 -8
-5 3 -2 5 2 2 4 4
1 -3 4 -5 -8 3 -6 0
4 8 7 2 6 4 7 -16
1 3 2 10 -8 7 0 7
1 -6 -6 -14 1 3 -4 -6
1 -1 0 9 13 2 0 -7
-7 -8 -27 -5 -1 2 -2 0
-1 1 -8 -11 -11 2 -4 -1
-4 -8 -9 -14 -1 -3 4 10
-9 3 1 -2 -3 -19 -7 1
4 2 -1 1 0 -5 -1 -5
1 -11 -10 -4 -1 1 -9 -4
4 1 9 -3 -3 4 2 7
00000000: fefd f9f6 f700 0402 ff00 05fe 0206 feff
00000010: fdfb ff01 0402 00fb 02ff fb00 08fd 0402
00000020: fc0b 0502 04fa 07fd fe07 fc04 f204 ffff
00000030: fcf1 f6f8 0001 fcfb fe05 0502 070d 0804
00000040: 00fb fcf8 fdfb fffb 01f8 00fa 0e0c fdfd
00000050: f9ff 0004 fcee fffe fd01 0200 feff fbf9
00000060: fcf6 06f5 f4fe f112 00fc 0c00 faff 0208
00000070: 03fc fdff fe00 0101 00fe 06fe fafd 04f7
00000080: 0704 0305 0301 0003 0a00 fedf 0604 1504
00000090: fffc ff04 0f05 faf8 fb03 fe05 0202 0404
000000a0: 01fd 04fb f803 fa00 0408 0702 0604 07f0
000000b0: 0103 020a f807 0007 01fa faf2 0103 fcfa
000000c0: 01ff 0009 0d02 00f9 f9f8 e5fb ff02 fe00
000000d0: ff01 f8f5 f502 fcff fcf8 f7f2 fffd 040a
000000e0: f703 01fe fded f901 0402 ff01 00fb fffb
000000f0: 01f5 f6fc ff01 f7fc 0401 09fd fd04 0207

onnx::Conv_261_quantized i1 [16, 32, 3, 3]
2 -10 -24 -30 -26 -33 -17 -7
-9 11 7 -3 14 15 17 0
9 5 -14 1 2 -9 13 -6
7 0 -1 0 0 -1 -11 -13
0 4 2 24 -3 10 2 7
6 4 3 -1 3 -13 2 -5
-4 8 -5 -11 12 -9 -9 -15
-5 0 2 -17 -16 -20 2 -11
-1 8 -8 -20 -7 -21 -19 -22
-20 -51 -33 -69 -84 -64 -37 -53
-44 -10 10 0 -6 12 -11 10
-3 -4 5 -1 -1 14 -20 -13
-4 -9 -9 -3 -4 -10 -28 -23
-15 0 -5 2 10 -9 13 0
-10 -1 3 -9 9 9 -1 -5
-11 -10 1 -11 -14 -3 -13 0
2 3 -10 6 21 13 14 -15
-44 -10 -32 -60 -25 -36 -53 -18
13 12 11 -23 -23 -18 9 9
17 12 2 11 0 -11 0 10
1 6 2 -3 9 -2 -5 -5
4 -3 7 3 -1 -1 -3 -20
-11 -25 -33 -18 29 8 9 6
17 11 -3 -11 -8 10 -2 -19
-1 -33 9 -22 7 2 -3 1
5 -6 -7 -1 -11 -6 -13 -5
-23 -1 -4 -28 -15 1 -5 -6
-4 6 9 -5 35 -6 9 16
-1 -10 -8 -4 -11 -7 11 0
2 0 -1 -2 -7 1 -37 -5
-8 2 -18 3 7 -1 0 9
-11 -14 -16 -17 20 10 1 16
00000000: 02f6 e8e2 e6df eff9 f70b 07fd 0e0f 1100
00000010: 0905 f201 02f7 0dfa 0700 ff00 00ff f5f3
00000020: 0004 0218 fd0a 0207 0604 03ff 03f3 02fb
00000030: fc08 fbf5 0cf7 f7f1 fb00 02ef f0ec 02f5
00000040: ff08 f8ec f9eb edea eccd dfbb acc0 dbcb
00000050: d4f6 0a00 fa0c f50a fdfc 05ff ff0e ecf3
00000060: fcf7 f7fd fcf6 e4e9 f100 fb02 0af7 0d00
00000070: f6ff 03f7 0909 fffb f5f6 01f5 f2fd f300
00000080: 0203 f606 150d 0ef1 d4f6 e0c4 e7dc cbee
00000090: 0d0c 0be9 e9ee 0909 110c 020b 00f5 000a
000000a0: 0106 02fd 09fe fbfb 04fd 0703 ffff fdec
000000b0: f5e7 dfee 1d08 0906 110b fdf5 f80a feed
000000c0: ffdf 09ea 0702 fd01 05fa f9ff f5fa f3fb
000000d0: e9ff fce4 f101 fbfa fc06 09fb 23fa 0910
000000e0: fff6 f8fc f5f9 0b00 0200 fffe f901 dbfb
000000f0: f802 ee03 07ff 0009 f5f2 f0ef 140a 0110

onnx::Conv_264_quantized i1 [16, 16, 3, 3]
1 1 -19 -11 -18 -19 -41 -34
10 10 7 -19 -8 1 10 -5
13 -15 11 -7 4 12 8 11
-7 -8 0 11 6 -21 0 2
-20 21 31 -16 12 -14 -29 -2
9 -1 7 -8 -14 16 -13 0
8 -8 -10 -17 -17 5 -10 -8
-5 16 23 43 -11 31 19 3
17 -20 10 31 10 13 9 -15
10 21 -26 2 30 -22 -67 -16
-25 19 37 -11 14 25 -16 11
-24 -9 11 -24 -11 -2 19 36
23 14 4 6 -1 -9 -30 -2
-2 -20 -23 1 -1 7 15 4
12 3 -15 -14 -10 4 -17 -25
-22 -25 -22 -16 -13 -8 -21 8
-3 -18 -9 -3 -14 -10 -8 -11
16 4 3 26 7 -5 -4 -28
-30 -25 -16 12 -1 8 -11 -15
0 7 8 25 10 0 4 -3
9 1 -12 3 -4 5 18 7
-7 6 23 7 16 3 1 -21
-12 -41 -21 -41 60 17 11 13
6 21 5 26 19 -3 -28 -10
-1 -43 -14 18 -1 -7 9 15
11 6 -6 24 14 25 42 8
19 -11 2 12 8 7 14 25
32 9 0 54 28 6 34 9
1 -9 -12 -9 -7 14 -23 -9
0 -3 15 20 16 28 6 2
5 12 3 0 16 -3 2 9
1 20 6 4 16 1 4 9
00000000: 0101 edf5 eeed d7de 0a0a 07ed f801 0afb
00000010: 0df1 0bf9 040c 080b f9f8 000b 06eb 0002
00000020: ec15 1ff0 0cf2 e3fe 09ff 07f8 f210 f300
00000030: 08f8 f6ef ef05 f6f8 fb10 172b f51f 1303
00000040: 11ec 0a1f 0a0d 09f1 0a15 e602 1eea bdf0
00000050: e713 25f5 0e19 f00b e8f7 0be8 f5fe 1324
00000060: 170e 0406 fff7 e2fe feec e901 ff07 0f04
00000070: 0c03 f1f2 f604 efe7 eae7 eaf0 f3f8 eb08
00000080: fdee f7fd f2f6 f8f5 1004 031a 07fb fce4
00000090: e2e7 f00c ff08 f5f1 0007 0819 0a00 04fd
000000a0: 0901 f403 fc05 1207 f906 1707 1003 01eb
000000b0: f4d7 ebd7 3c11 0b0d 0615 051a 13fd e4f6
000000c0: ffd5 f212 fff9 090f 0b06 fa18 0e19 2a08
000000d0: 13f5 020c 0807 0e19 2009 0036 1c06 2209
000000e0: 01f7 f4f7 f90e e9f7 00fd 0f14 101c 0602
000000f0: 050c 0300 10fd 0209 0114 0604 1001 0409

onnx::Conv_267_quantized i1 [64, 128, 1, 1]
-5 17 2 2 -8 0 1 -4
2 -3 -12 6 1 -7 -5 15
-14 1 -3 -2 10 6 12 2
2 1 4 8 0 -1 8 -3
2 1 0 -1 -3 -1 1 -22
-5 -19 -3 2 -6 -3 -5 -14
5 -4 8 6 -5 20 1 2
-10 5 -2 -9 2 4 -7 -1
1 -4 -4 7 0 2 -2 0
3 -10 3 2 -6 7 3 -4
-2 -2 4 8 -16 2 -3 10
-2 6 -1 -2 21 4 -9 19
-2 -2 -7 -6 18 -2 -1 -5
8 -1 -9 9 3 0 4 -2
1 -1 -19 6 2 0 -25 -3
-10 1 3 -6 2 -16 6 3
0 31 -4 -3 -2 0 1 -6
-2 5 -26 3 -2 -18 6 8
-2 3 -1 10 -7 0 -8 -2
-3 3 2 -4 -1 -3 1 0
4 -17 2 0 -6 -5 9 10
1 -2 -2 2 -2 -1 6 -5
3 -5 2 -12 8 3 0 2
5 0 -5 6 3 2 1 -5
-2 0 6 -1 2 5 -10 1
-1 5 3 -2 -1 -5 2 12
-2 0 0 -1 -2 7 0 1
-11 -3 13 3 4 -5 1 1
10 -6 7 3 -1 3 0 0
-4 -2 -2 -3 -2 2 -3 0
1 1 -4 4 2 3 -2 -5
-5 3 -2 -4 -2 -8 -1 2
00000000: fb11 0202 f800 01fc 02fd f406 01f9 fb0f
00000010: f201 fdfe 0a06 0c02 0201 0408 00ff 08fd
00000020: 0201 00ff fdff 01ea fbed fd02 fafd fbf2
00000030: 05fc 0806 fb14 0102 f605 fef7 0204 f9ff
00000040: 01fc fc07 0002 fe00 03f6 0302 fa07 03fc
00000050: fefe 0408 f002 fd0a fe06 fffe 1504 f713
00000060: fefe f9fa 12fe fffb 08ff f709 0300 04fe
00000070: 01ff ed06 0200 e7fd f601 03fa 02f0 0603
00000080: 001f fcfd fe00 01fa fe05 e603 feee 0608
00000090: fe03 ff0a f900 f8fe fd03 02fc fffd 0100
000000a0: 04ef 0200 fafb 090a 01fe fe02 feff 06fb
000000b0: 03fb 02f4 0803 0002 0500 fb06 0302 01fb
000000c0: fe00 06ff 0205 f601 ff05 03fe fffb 020c
000000d0: fe00 00ff fe07 0001 f5fd 0d03 04fb 0101
000000e0: 0afa 0703 ff03 0000 fcfe fefd fe02 fd00
000000f0: 0101 fc04 0203 fefb fb03 fefc fef8 ff02

onnx::Conv_270_quantized i1 [32, 64, 3, 3]
-12 -14 -2 -8 5 -2 2 2
1 7 9 14 9 -16 7 17
9 6 0 -4 -2 -6 -12 2
3 1 4 -3 2 2 -5 0
5 -12 8 4 0 -4 -3 -1
2 -4 0 14 11 12 17 9
-6 2 -4 -1 6 10 -1 -2
-2 5 -27 2 11 3 -1 3
-1 3 3 -2 -1 1 -7 -1
6 9 -1 4 8 -1 -1 2
-4 -7 -8 -6 5 -38 -5 7
-4 2 4 15 7 8 -34 2
4 -2 14 -1 -5 2 -4 -13
-5 8 11 5 10 6 6 0
-9 2 4 3 13 4 7 1
3 -7 4 4 -1 0 6 2
4 6 12 7 5 -3 4 5
0 7 3 -15 0 8 -6 4
4 -6 -8 -1 4 -8 6 7
-4 6 1 3 4 -1 -2 6
8 -2 2 7 2 -2 -22 -1
-5 2 1 7 20 8 -1 -27
-2 8 16 7 7 -3 1 -2
5 -6 -2 -3 -10 11 1 2
3 19 0 -5 -2 -9 10 2
1 15 -28 8 12 7 15 -2
-1 -2 1 2 9 -6 -7 0
4 3 8 -11 18 -1 -1 -1
9 1 8 7 1 -15 6 12
6 -2 0 1 -6 6 4 2
1 -3 -1 -2 2 -3 7 -10
9 3 0 5 8 4 6 6
00000000: f4f2 fef8 05fe 0202 0107 090e 09f0 0711
00000010: 0906 00fc fefa f402 0301 04fd 0202 fb00
00000020: 05f4 0804 00fc fdff 02fc 000e 0b0c 1109
00000030: fa02 fcff 060a fffe fe05 e502 0b03 ff03
00000040: ff03 03fe ff01 f9ff 0609 ff04 08ff ff02
00000050: fcf9 f8fa 05da fb07 fc02 040f 0708 de02
00000060: 04fe 0eff fb02 fcf3 fb08 0b05 0a06 0600
00000070: f702 0403 0d04 0701 03f9 0404 ff00 0602
00000080: 0406 0c07 05fd 0405 0007 03f1 0008 fa04
00000090: 04fa f8ff 04f8 0607 fc06 0103 04ff fe06
000000a0: 08fe 0207 02fe eaff fb02 0107 1408 ffe5
000000b0: fe08 1007 07fd 01fe 05fa fefd f60b 0102
000000c0: 0313 00fb fef7 0a02 010f e408 0c07 0ffe
000000d0: fffe 0102 09fa f900 0403 08f5 12ff ffff
000000e0: 0901 0807 01f1 060c 06fe 0001 fa06 0402
000000f0: 01fd fffe 02fd 07f6 0903 0005 0804 0606

onnx::Conv_273_quantized i1 [16, 32, 3, 3]
-5 -4 -3 1 1 -15 -5 -19
-20 9 -2 9 1 -11 18 3
-10 4 -9 -15 -8 23 -11 -1
15 10 -3 20 9 3 -11 7
-18 3 8 -2 -4 7 -7 -8
-7 -6 2 0 -1 3 2 0
-7 7 -2 -2 -8 -19 2 -9
17 11 4 19 -3 -7 0 -7
9 1 1 -7 4 8 -11 13
13 -6 20 16 -10 18 -9 -11
-11 0 2 6 -15 31 -7 -7
-10 -1 8 -7 1 -7 20 9
-3 2 -4 0 4 8 -8 9
16 5 2 5 -5 4 16 -10
12 8 -9 6 -1 7 -4 0
-3 2 -1 -7 -1 1 7 -5
17 -13 0 -21 -1 -25 -8 8
-5 8 2 -7 17 -4 -4 7
-5 -10 9 37 -3 -15 -9 -11
-3 0 5 -3 -17 -15 -2 -11
5 -4 2 -4 4 2 13 2
0 -4 4 19 -8 1 2 -8
-3 11 29 25 -5 10 -11 -5
-13 -15 -15 -10 -37 3 6 8
-14 -18 -31 -16 -27 -31 -10 -2
-6 -12 6 -13 -10 -9 -10 3
23 17 2 16 20 2 3 1
1 -3 3 6 -3 -3 -17 6
2 8 -14 2 -6 -37 -14 1
-19 -16 11 7 13 -12 -34 -18
12 -6 -7 -2 9 -7 5 5
-4 -1 7 -11 -5 -8 -5 -5
00000000: fbfc fd01 01f1 fbed ec09 fe09 01f5 1203
00000010: f604 f7f1 f817 f5ff 0f0a fd14 0903 f507
00000020: ee03 08fe fc07 f9f8 f9fa 0200 ff03 0200
00000030: f907 fefe f8ed 02f7 110b 0413 fdf9 00f9
00000040: 0901 01f9 0408 f50d 0dfa 1410 f612 f7f5
00000050: f500 0206 f11f f9f9 f6ff 08f9 01f9 1409
00000060: fd02 fc00 0408 f809 1005 0205 fb04 10f6
00000070: 0c08 f706 ff07 fc00 fd02 fff9 ff01 07fb
00000080: 11f3 00eb ffe7 f808 fb08 02f9 11fc fc07
00000090: fbf6 0925 fdf1 f7f5 fd00 05fd eff1 fef5
000000a0: 05fc 02fc 0402 0d02 00fc 0413 f801 02f8
000000b0: fd0b 1d19 fb0a f5fb f3f1 f1f6 db03 0608
000000c0: f2ee e1f0 e5e1 f6fe faf4 06f3 f6f7 f603
000000d0: 1711 0210 1402 0301 01fd 0306 fdfd ef06
000000e0: 0208 f202 fadb f201 edf0 0b07 0df4 deee
000000f0: 0cfa f9fe 09f9 0505 fcff 07f5 fbf8 fbfb

onnx::Conv_276_quantized i1 [16, 16, 3, 3]
-27 7 17 -1 31 0 42 -20
22 15 -6 16 -23 -26 13 6
-13 13 59 -83 18 10 -42 18
-25 -13 4 25 4 27 -10 -38
-44 -16 -37 -44 -14 -34 6 -16
-40 -13 7 -34 20 1 -31 21
14 8 9 19 6 26 -26 -16
28 -14 -13 -1 -8 -10 18 -22
-21 -20 -37 -16 -11 -27 -9 14
16 -2 -7 0 -8 -11 -18 -30
-42 9 -59 26 35 -8 35 32
-48 13 -28 -80 -23 -6 -74 -27
-14 -57 35 45 -84 53 -44 3
-33 -52 -10 -57 3 -30 10 -14
-16 7 12 40 16 0 60 11
22 5 -7 1 -56 14 -12 -9
-26 -17 -8 -11 28 -25 4 16
17 6 -30 39 -18 -10 2 -41
3 5 -4 -2 -4 2 -3 7
0 5 -6 -4 -1 -1 1 6
7 -3 8 3 10 10 1 10
4 -10 0 -5 -11 -3 -2 0
1 7 12 5 0 1 -1 8
4 0 -6 -9 -9 -2 4 8
-12 8 7 -10 2 4 -1 6
6 3 -1 -4 -7 -2 6 -1
-20 -13 10 -12 -11 13 6 -3
6 10 7 -2 -1 5 -3 -10
-7 14 8 8 -4 5 2 13
2 8 2 5 4 -5 -1 -2
9 9 3 -2 -1 0 7 1
5 -8 -7 -7 -1 -6 -3 2
00000000: e507 11ff 1f00 2aec 160f fa10 e9e6 0d06
00000010: f30d 3bad 120a d612 e7f3 0419 041b f6da
00000020: d4f0 dbd4 f2de 06f0 d8f3 07de 1401 e115
00000030: 0e08 0913 061a e6f0 1cf2 f3ff f8f6 12ea
00000040: ebec dbf0 f5e5 f70e 10fe f900 f8f5 eee2
00000050: d609 c51a 23f8 2320 d00d e4b0 e9fa b6e5
00000060: f2c7 232d ac35 d403 dfcc f6c7 03e2 0af2
00000070: f007 0c28 1000 3c0b 1605 f901 c80e f4f7
00000080: e6ef f8f5 1ce7 0410 1106 e227 eef6 02d7
00000090: 0305 fcfe fc02 fd07 0005 fafc ffff 0106
000000a0: 07fd 0803 0a0a 010a 04f6 00fb f5fd fe00
000000b0: 0107 0c05 0001 ff08 0400 faf7 f7fe 0408
000000c0: f408 07f6 0204 ff06 0603 fffc f9fe 06ff
000000d0: ecf3 0af4 f50d 06fd 060a 07fe ff05 fdf6
000000e0: f90e 0808 fc05 020d 0208 0205 04fb fffe
000000f0: 0909 03fe ff00 0701 05f8 f9f9 fffa fd02

onnx::Conv_279_quantized i1 [128, 128, 1, 1]
11 -9 2 -45 -2 -7 -34 2
-3 -74 -9 2 -18 8 -11 -22
-5 -2 -30 50 9 -15 9 -9
1 18 -6 -11 -19 4 -4 10
2 7 3 -6 -11 -5 -33 7
-21 -11 31 -15 -6 -3 7 -16
-2 -15 2 -15 9 12 -17 4
-14 25 6 -14 -1 -2 -13 -4
-8 -32 9 8 -8 -6 -22 14
1 -6 -4 -11 -1 -7 12 -6
-2 41 -9 -2 12 -3 0 -27
5 10 -13 -16 -33 6 8 10
9 -12 2 14 -1 6 8 -10
-5 -19 -12 -39 13 -10 25 -14
-20 2 -7 -4 0 8 11 5
5 -42 22 5 -18 -13 -7 10
-8 -8 8 -4 -46 25 12 -5
4 16 -4 32 -24 0 13 9
-19 7 -2 27 -36 -38 -10 7
-21 -5 -45 10 -5 -4 -2 -1
-12 10 8 -30 -12 16 3 -7
-9 -12 -10 -12 11 36 43 -17
-2 -8 17 19 -3 17 15 -24
-19 -7 -5 -9 -86 -2 -16 -22
-35 13 -2 -5 -31 1 41 15
1 12 18 9 4 -3 29 9
-18 2 18 -20 22 4 -6 19
4 -14 -7 11 0 -6 12 5
3 -15 21 29 -9 0 11 10
13 -3 -8 -4 -13 2 10 18
25 -18 17 -5 21 7 14 -30
14 30 -9 -15 9 -5 16 21
00000000: 0bf7 02d3 fef9 de02 fdb6 f702 ee08 f5ea
00000010: fbfe e232 09f1 09f7 0112 faf5 ed04 fc0a
00000020: 0207 03fa f5fb df07 ebf5 1ff1 fafd 07f0
00000030: fef1 02f1 090c ef04 f219 06f2 fffe f3fc
00000040: f8e0 0908 f8fa ea0e 01fa fcf5 fff9 0cfa
00000050: fe29 f7fe 0cfd 00e5 050a f3f0 df06 080a
00000060: 09f4 020e ff06 08f6 fbed f4d9 0df6 19f2
00000070: ec02 f9fc 0008 0b05 05d6 1605 eef3 f90a
00000080: f8f8 08fc d219 0cfb 0410 fc20 e800 0d09
00000090: ed07 fe1b dcda f607 ebfb d30a fbfc feff
000000a0: f40a 08e2 f410 03f9 f7f4 f6f4 0b24 2bef
000000b0: fef8 1113 fd11 0fe8 edf9 fbf7 aafe f0ea
000000c0: dd0d fefb e101 290f 010c 1209 04fd 1d09
000000d0: ee02 12ec 1604 fa13 04f2 f90b 00fa 0c05
000000e0: 03f1 151d f700 0b0a 0dfd f8fc f302 0a12
000000f0: 19ee 11fb 1507 0ee2 0e1e f7f1 09fb 1015

onnx::Conv_282_quantized i1 [128, 1, 3, 3]
-1 5 6 4 12 8 4 6
5 -3 -4 -3 -4 -6 -3 -2
-3 -2 -2 -3 -2 -5 -11 -7
-4 -8 -6 1 -4 -3 -3 -11
-10 -4 -9 -7 -7 -11 -7 -6
-12 -8 -2 -7 -5 -2 -5 -3
-4 -10 -6 -2 -9 -7 -2 -8
-4 -6 -18 -13 -2 -14 -9 1
5 4 4 11 9 3 8 7
-2 -5 -2 -6 -11 -6 -3 -8
-5 -1 12 17 2 20 26 5
14 10 -13 2 22 -44 2 52
-33 -2 34 0 4 2 4 7
6 5 7 5 3 5 2 5
10 6 2 4 2 1 5 3
0 6 4 1 4 4 -1 -4
-1 -3 -6 -4 -3 -5 -3 0
-3 -1 -2 -8 -5 -1 -5 -3
1 10 8 5 15 11 0 8
5 -2 -3 0 -4 -9 -4 -3
-5 -5 -5 0 -2 10 27 16
7 14 11 1 -3 -3 -4 -11
-10 -2 -8 -5 2 6 2 5
12 10 1 6 4 28 8 -20
50 6 -43 26 0 -26 0 -2
-1 -3 -6 -3 -4 -6 -5 -4
-8 -7 -7 -17 -10 -5 -8 -5
2 5 4 4 12 10 1 4
3 5 8 5 8 18 14 2
13 8 1 2 1 2 10 8
3 12 8 -1 -9 -5 -6 -15
-12 -4 -14 -14 14 33 25 -26
00000000: ff05 0604 0c08 0406 05fd fcfd fcfa fdfe
00000010: fdfe fefd fefb f5f9 fcf8 fa01 fcfd fdf5
00000020: f6fc f7f9 f9f5 f9fa f4f8 fef9 fbfe fbfd
00000030: fcf6 fafe f7f9 fef8 fcfa eef3 fef2 f701
00000040: 0504 040b 0903 0807 fefb fefa f5fa fdf8
00000050: fbff 0c11 0214 1a05 0e0a f302 16d4 0234
00000060: dffe 2200 0402 0407 0605 0705 0305 0205
00000070: 0a06 0204 0201 0503 0006 0401 0404 fffc
00000080: fffd fafc fdfb fd00 fdff fef8 fbff fbfd
00000090: 010a 0805 0f0b 0008 05fe fd00 fcf7 fcfd
000000a0: fbfb fb00 fe0a 1b10 070e 0b01 fdfd fcf5
000000b0: f6fe f8fb 0206 0205 0c0a 0106 041c 08ec
000000c0: 3206 d51a 00e6 00fe fffd fafd fcfa fbfc
000000d0: f8f9 f9ef f6fb f8fb 0205 0404 0c0a 0104
000000e0: 0305 0805 0812 0e02 0d08 0102 0102 0a08
000000f0: 030c 08ff f7fb faf1 f4fc f2f2 0e21 19e6

onnx::Conv_285_quantized i1 [64, 128, 3, 3]
-8 1 -1 -2 -2 -3 2 8
-1 7 11 7 1 6 7 -3
10 10 -2 -8 -1 0 -3 6
5 6 23 -2 1 -7 10 -3
7 -3 -4 -4 1 -3 0 -8
-3 -6 -18 -16 -13 0 -10 -6
-4 -3 -10 -11 -5 -9 5 -3
5 2 -1 5 -2 -6 -8 -6
-9 -11 -5 -15 -2 13 -1 13
11 21 12 5 -4 5 5 11
0 -6 -5 2 3 22 3 0
-1 0 -5 -3 1 1 -5 1
-4 6 -2 -7 -9 -7 -4 -12
-2 -4 -3 -1 -3 -5 -2 -2
-5 -1 12 13 16 6 7 -1
-6 -14 -1 -2 -3 -4 18 23
10 -1 6 2 -1 -2 2 -10
-9 -13 -10 -9 -17 -11 -14 -17
-5 1 -3 2 3 6 -14 0
-6 8 13 7 4 0 -1 8
4 -1 -1 -1 -1 -6 3 -8
3 1 2 -2 0 -2 -7 -2
-11 -6 -6 -2 -8 -4 -1 -16
-6 -7 1 2 1 -3 -1 -4
-13 -6 8 0 0 7 9 -4
5 6 1 4 2 -12 -5 -3
-2 -5 -2 7 -7 10 5 -6
-2 3 -5 -1 6 -6 2 3
-2 0 5 0 1 -8 -6 -2
-8 -6 -1 -3 -5 5 3 0
5 3 3 -17 -18 -10 -5 -6
4 4 6 10 -4 3 16 10
00000000: f801 fffe fefd 0208 ff07 0b07 0106 07fd
00000010: 0a0a fef8 ff00 fd06 0506 17fe 01f9 0afd
00000020: 07fd fcfc 01fd 00f8 fdfa eef0 f300 f6fa
00000030: fcfd f6f5 fbf7 05fd 0502 ff05 fefa f8fa
00000040: f7f5 fbf1 fe0d ff0d 0b15 0c05 fc05 050b
00000050: 00fa fb02 0316 0300 ff00 fbfd 0101 fb01
00000060: fc06 fef9 f7f9 fcf4 fefc fdff fdfb fefe
00000070: fbff 0c0d 1006 07ff faf2 fffe fdfc 1217
00000080: 0aff 0602 fffe 02f6 f7f3 f6f7 eff5 f2ef
00000090: fb01 fd02 0306 f200 fa08 0d07 0400 ff08
000000a0: 04ff ffff fffa 03f8 0301 02fe 00fe f9fe
000000b0: f5fa fafe f8fc fff0 faf9 0102 01fd fffc
000000c0: f3fa 0800 0007 09fc 0506 0104 02f4 fbfd
000000d0: fefb fe07 f90a 05fa fe03 fbff 06fa 0203
000000e0: fe00 0500 01f8 fafe f8fa fffd fb05 0300
000000f0: 0503 03ef eef6 fbfa 0404 060a fc03 100a

onnx::Conv_288_quantized i1 [32, 64, 3, 3]
-1 -8 -25 -18 -27 -36 11 5
6 -9 -18 -17 14 -1 18 16
11 17 -24 -16 -26 -23 -12 -30
-14 -21 -19 0 -7 8 21 4
21 17 17 16 1 -13 3 9
-2 16 -9 -10 12 -20 -10 -22
-6 0 -4 -9 -33 -25 25 15
11 75 7 -23 7 -2 -13 -32
-33 -36 -18 -19 -19 -6 -10 1
16 18 6 25 23 20 31 48
25 -35 -11 -11 -15 -1 -10 -7
-2 -7 -1 7 -3 4 11 1
-11 -1 -16 -11 -3 0 -25 -24
-8 0 -2 4 -14 -5 3 8
-7 9 25 16 24 -4 9 -8
-3 9 -9 -20 -23 -33 18 26
34 -32 -36 -8 -25 -26 -17 -16
-19 -27 -9 -23 -13 -33 -16 -11
-6 10 6 -8 -5 5 -24 -30
-34 -3 -12 -15 -19 -15 -17 -16
4 -17 -11 -7 1 9 -2 0
0 -6 -12 -27 -18 -14 -38 -21
-23 -31 -12 -21 -11 -11 -3 -26
-18 13 -19 -14 -10 10 19 5
20 17 -5 22 20 7 -8 -6
-33 -13 -8 -11 9 5 5 -13
-5 -16 2 -18 7 -9 -30 -8
-9 -22 2 1 29 10 22 19
32 -19 0 -14 -18 -20 -15 -1
6 5 12 13 0 8 5 9
-28 -27 -12 -9 -20 -24 0 17
11 -36 -3 14 -20 0 0 3
00000000: fff8 e7ee e5dc 0b05 06f7 eeef 0eff 1210
00000010: 0b11 e8f0 e6e9 f4e2 f2eb ed00 f908 1504
00000020: 1511 1110 01f3 0309 fe10 f7f6 0cec f6ea
00000030: fa00 fcf7 dfe7 190f 0b4b 07e9 07fe f3e0
00000040: dfdc eeed edfa f601 1012 0619 1714 1f30
00000050: 19dd f5f5 f1ff f6f9 fef9 ff07 fd04 0b01
00000060: f5ff f0f5 fd00 e7e8 f800 fe04 f2fb 0308
00000070: f909 1910 18fc 09f8 fd09 f7ec e9df 121a
00000080: 22e0 dcf8 e7e6 eff0 ede5 f7e9 f3df f0f5
00000090: fa0a 06f8 fb05 e8e2 defd f4f1 edf1 eff0
000000a0: 04ef f5f9 0109 fe00 00fa f4e5 eef2 daeb
000000b0: e9e1 f4eb f5f5 fde6 ee0d edf2 f60a 1305
000000c0: 1411 fb16 1407 f8fa dff3 f8f5 0905 05f3
000000d0: fbf0 02ee 07f7 e2f8 f7ea 0201 1d0a 1613
000000e0: 20ed 00f2 eeec f1ff 0605 0c0d 0008 0509
000000f0: e4e5 f4f7 ece8 0011 0bdc fd0e ec00 0003

onnx::Conv_291_quantized i1 [32, 32, 3, 3]
-4 -1 -10 -18 1 2 -6 -2
9 20 11 17 10 3 3 -8
-14 -14 -12 2 1 2 14 8
-24 -3 -17 12 20 4 -5 19
0 -12 -4 -14 21 19 20 -4
-9 -11 -1 -13 -17 -7 -6 -16
3 8 -9 11 10 4 29 28
8 11 -2 -14 -10 -21 -18 0
11 11 0 -14 -2 22 29 12
-22 -1 12 -34 -3 -6 -13 -3
-17 -13 -23 -26 -7 -17 -23 -13
-14 -15 -21 -9 -8 -18 -12 -3
-15 -19 -16 -14 -7 -12 -33 -34
-2 -8 12 -1 9 9 10 -1
3 1 -5 4 -1 14 7 13
6 4 7 5 -1 7 10 -5
16 -18 -6 -7 3 18 14 7
27 2 32 10 -10 18 -1 12
3 12 12 -7 5 -4 -6 -4
1 15 10 1 -7 -22 -31 -13
-10 -11 5 4 -1 12 12 2
-15 -8 -17 14 13 -6 -5 2
-19 3 26 -6 3 -12 -3 15
9 -3 -6 11 -1 0 -5 4
18 -9 20 13 9 8 9 17
18 8 9 -2 -6 -22 -17 10
11 -5 9 1 14 -2 9 1
10 4 3 7 -2 1 6 12
14 14 2 12 -16 -9 -5 -27
-17 -15 -6 6 -9 6 5 -8
2 8 -3 -7 -13 0 -5 -45
-5 3 -20 8 -5 -8 -5 -4
00000000: fcff f6ee 0102 fafe 0914 0b11 0a03 03f8
00000010: f2f2 f402 0102 0e08 e8fd ef0c 1404 fb13
00000020: 00f4 fcf2 1513 14fc f7f5 fff3 eff9 faf0
00000030: 0308 f70b 0a04 1d1c 080b fef2 f6eb ee00
00000040: 0b0b 00f2 fe16 1d0c eaff 0cde fdfa f3fd
00000050: eff3 e9e6 f9ef e9f3 f2f1 ebf7 f8ee f4fd
00000060: f1ed f0f2 f9f4 dfde fef8 0cff 0909 0aff
00000070: 0301 fb04 ff0e 070d 0604 0705 ff07 0afb
00000080: 10ee faf9 0312 0e07 1b02 200a f612 ff0c
00000090: 030c 0cf9 05fc fafc 010f 0a01 f9ea e1f3
000000a0: f6f5 0504 ff0c 0c02 f1f8 ef0e 0dfa fb02
000000b0: ed03 1afa 03f4 fd0f 09fd fa0b ff00 fb04
000000c0: 12f7 140d 0908 0911 1208 09fe faea ef0a
000000d0: 0bfb 0901 0efe 0901 0a04 0307 fe01 060c
000000e0: 0e0e 020c f0f7 fbe5 eff1 fa06 f706 05f8
000000f0: 0208 fdf9 f300 fbd3 fb03 ec08 fbf8 fbfc

onnx::Conv_294_quantized i1 [128, 256, 1, 1]
-18 -22 10 -7 -11 -1 -5 -7
-11 -27 3 -11 -6 3 10 -6
26 8 -1 3 6 -12 1 1
-1 -2 -2 1 -22 -7 9 7
-1 -9 -2 -12 4 -6 -4 35
11 9 13 3 9 5 -6 -5
-11 -1 -24 -4 3 2 -2 9
-4 -5 3 -12 -11 -7 10 -7
-5 -23 -4 -10 10 0 14 5
12 -15 10 -21 -6 31 2 51
-12 -21 -7 -6 1 -8 11 -9
-4 -9 8 10 5 -5 12 11
3 1 4 1 3 -5 -2 0
-20 -3 -6 -1 2 -2 -12 4
-14 3 -5 8 -4 9 -5 -6
3 8 -5 -1 -8 -3 8 -18
-19 2 7 10 -19 14 -10 2
-4 -1 15 2 -1 -1 -6 -8
10 -5 -17 -3 -10 29 -15 10
-5 7 13 -18 -10 -9 15 11
-8 -2 -6 -15 -23 -1 -3 1
5 -1 -2 13 14 12 -7 13
-22 24 -8 17 -9 -5 -6 2
-14 -1 -2 -8 14 -14 0 4
9 9 -4 2 -1 -6 -9 20
-9 -2 -10 -8 16 -3 15 2
2 -14 -6 -4 -12 1 3 3
8 -29 -1 11 6 1 -7 6
-7 1 -1 -6 4 -18 -14 -23
-31 -38 -7 -43 -23 -7 -12 5
8 19 -14 -13 -2 6 20 13
10 -4 -16 -13 6 -3 -8 15
00000000: eeea 0af9 f5ff fbf9 f5e5 03f5 fa03 0afa
00000010: 1a08 ff03 06f4 0101 fffe fe01 eaf9 0907
00000020: fff7 fef4 04fa fc23 0b09 0d03 0905 fafb
00000030: f5ff e8fc 0302 fe09 fcfb 03f4 f5f9 0af9
00000040: fbe9 fcf6 0a00 0e05 0cf1 0aeb fa1f 0233
00000050: f4eb f9fa 01f8 0bf7 fcf7 080a 05fb 0c0b
00000060: 0301 0401 03fb fe00 ecfd faff 02fe f404
00000070: f203 fb08 fc09 fbfa 0308 fbff f8fd 08ee
00000080: ed02 070a ed0e f602 fcff 0f02 ffff faf8
00000090: 0afb effd f61d f10a fb07 0dee f6f7 0f0b
000000a0: f8fe faf1 e9ff fd01 05ff fe0d 0e0c f90d
000000b0: ea18 f811 f7fb fa02 f2ff fef8 0ef2 0004
000000c0: 0909 fc02 fffa f714 f7fe f6f8 10fd 0f02
000000d0: 02f2 fafc f401 0303 08e3 ff0b 0601 f906
000000e0: f901 fffa 04ee f2e9 e1da f9d5 e9f9 f405
000000f0: 0813 f2f3 fe06 140d 0afc f0f3 06fd f80f

onnx::Conv_297_quantized i1 [64, 128, 3, 3]
-18 -9 -16 0 16 8 -1 8
1 -2 -7 4 -10 -13 1 -3
-19 -6 13 13 14 3 -9 4
-7 -10 -1 -10 2 -4 7 0
7 11 2 8 -7 5 -7 7
9 7 2 -12 7 20 12 19
-3 -9 3 -13 -42 -16 -7 -7
-4 -3 -6 -5 3 12 3 16
13 13 -2 -15 4 -8 -16 -10
-4 -2 3 -8 -26 -14 -5 -13
14 -5 6 -6 -13 12 -10 1
29 8 1 -11 8 5 -23 -4
7 4 13 7 3 3 8 4
-2 10 4 4 4 2 2 -7
-13 -9 -13 -14 -12 -5 -8 -17
-7 -9 -4 -7 -4 -1 1 -8
0 -8 -15 -3 -8 -6 -5 12
12 14 10 -5 2 1 17 3
-8 3 -2 -6 -4 -5 2 5
0 -3 -13 -7 -4 -13 -4 -1
-11 -1 15 -7 4 1 -22 -8
1 11 -1 -7 8 -1 3 18
8 -6 1 -3 1 -6 1 14
18 7 -6 -24 -15 13 -9 7
1 -4 -2 2 6 8 -12 -1
-25 -4 3 -6 3 6 -5 -13
-5 -6 -8 -16 -6 0 -1 8
-4 -6 -8 8 0 -9 3 7
-1 2 13 -4 -4 13 8 -21
-10 -23 -10 -6 -15 -7 5 1
-11 -1 -8 -11 -18 -2 -7 -13
-1 -10 -5 -3 21 4 31 -5
00000000: eef7 f000 1008 ff08 01fe f904 f6f3 01fd
00000010: edfa 0d0d 0e03 f704 f9f6 fff6 02fc 0700
00000020: 070b 0208 f905 f907 0907 02f4 0714 0c13
00000030: fdf7 03f3 d6f0 f9f9 fcfd fafb 030c 0310
00000040: 0d0d fef1 04f8 f0f6 fcfe 03f8 e6f2 fbf3
00000050: 0efb 06fa f30c f601 1d08 01f5 0805 e9fc
00000060: 0704 0d07 0303 0804 fe0a 0404 0402 02f9
00000070: f3f7 f3f2 f4fb f8ef f9f7 fcf9 fcff 01f8
00000080: 00f8 f1fd f8fa fb0c 0c0e 0afb 0201 1103
00000090: f803 fefa fcfb 0205 00fd f3f9 fcf3 fcff
000000a0: f5ff 0ff9 0401 eaf8 010b fff9 08ff 0312
000000b0: 08fa 01fd 01fa 010e 1207 fae8 f10d f707
000000c0: 01fc fe02 0608 f4ff e7fc 03fa 0306 fbf3
000000d0: fbfa f8f0 fa00 ff08 fcfa f808 00f7 0307
000000e0: ff02 0dfc fc0d 08eb f6e9 f6fa f1f9 0501
000000f0: f5ff f8f5 eefe f9f3 fff6 fbfd 1504 1ffb

onnx::Conv_300_quantized i1 [32, 64, 3, 3]
-1 -3 -1 4 1 3 11 2
11 -10 -10 -8 -15 -13 -1 -6
-11 -6 -1 6 -5 1 -7 -7
-3 -15 -2 14 11 25 0 1
10 4 6 -6 -3 3 0 12
3 -2 -8 -6 1 -8 -1 -7
-5 -2 0 3 -5 3 4 -1
1 5 12 5 -1 12 6 2
-6 -7 -5 1 -12 -6 -7 -15
3 6 -1 14 22 7 21 21
18 1 -12 -12 5 4 1 7
10 2 -8 0 -4 -2 -12 -14
5 4 -1 -2 -9 2 1 -10
8 18 7 23 -10 -4 -15 -4
1 -2 -9 -4 -11 -5 -5 -18
-5 3 -8 -5 -4 -7 -1 -2
-1 3 0 2 -5 -3 2 -8
-8 -10 0 1 -3 -6 -9 -4
-1 14 8 -8 11 -10 -10 -8
-11 19 12 19 24 9 14 36
22 22 0 -12 0 -10 -4 0
-11 3 9 25 28 3 26 13
2 10 23 0 -13 0 -2 -9
-4 -7 -5 -16 -23 -19 -23 -20
-9 -10 -8 5 3 6 -7 -2
-9 4 -5 3 -3 -1 -7 13
11 -5 3 18 -5 4 -2 20
11 12 1 18 21 -10 -20 -22
-6 4 7 -2 2 5 1 5
4 2 1 -1 -8 1 8 5
0 -4 3 -8 -8 -13 -10 -9
-5 -8 -16 -10 -3 1 -5 1
00000000: fffd ff04 0103 0b02 0bf6 f6f8 f1f3 fffa
00000010: f5fa ff06 fb01 f9f9 fdf1 fe0e 0b19 0001
00000020: 0a04 06fa fd03 000c 03fe f8fa 01f8 fff9
00000030: fbfe 0003 fb03 04ff 0105 0c05 ff0c 0602
00000040: faf9 fb01 f4fa f9f1 0306 ff0e 1607 1515
00000050: 1201 f4f4 0504 0107 0a02 f800 fcfe f4f2
00000060: 0504 fffe f702 01f6 0812 0717 f6fc f1fc
00000070: 01fe f7fc f5fb fbee fb03 f8fb fcf9 fffe
00000080: ff03 0002 fbfd 02f8 f8f6 0001 fdfa f7fc
00000090: ff0e 08f8 0bf6 f6f8 f513 0c13 1809 0e24
000000a0: 1616 00f4 00f6 fc00 f503 0919 1c03 1a0d
000000b0: 020a 1700 f300 fef7 fcf9 fbf0 e9ed e9ec
000000c0: f7f6 f805 0306 f9fe f704 fb03 fdff f90d
000000d0: 0bfb 0312 fb04 fe14 0b0c 0112 15f6 ecea
000000e0: fa04 07fe 0205 0105 0402 01ff f801 0805
000000f0: 00fc 03f8 f8f3 f6f7 fbf8 f0f6 fd01 fb01

onnx::Conv_303_quantized i1 [32, 32, 3, 3]
-5 5 -2 4 -9 -5 -2 -8
4 46 16 45 27 11 20 42
38 43 3 -20 4 -9 -17 -9
-3 -7 -4 -17 -22 -8 -3 -6
-23 0 -9 -6 -7 -12 2 4
-9 -3 -6 -4 -11 26 21 27
7 -4 13 23 27 27 23 12
31 7 -14 6 29 4 21 6
14 10 5 7 8 5 8 10
10 8 -1 -3 13 2 2 4
5 13 3 10 4 -23 -2 8
-2 14 -9 -6 -10 -9 -6 -13
-11 -27 -9 35 3 33 9 13
10 12 0 18 -1 13 -4 10
18 8 25 -16 19 -31 -14 -42
-4 9 -19 -22 1 -38 11 1
11 1 -19 6 16 2 12 -17
8 -4 4 -4 -15 2 -11 3
-2 -10 -4 -7 -12 -4 -3 -10
-2 34 12 31 13 -13 17 36
23 35 34 3 21 3 25 20
37 24 22 -27 2 -26 -7 20
-4 -22 4 -20 -1 -3 -3 10
-1 3 3 8 -1 -4 24 2
-7 2 -2 -12 -2 0 -35 1
-28 -9 13 -11 -24 -32 -23 20
18 16 12 0 14 9 2 4
-5 -11 -14 -9 -12 -16 -15 -7
-1 31 10 23 6 -13 13 22
4 18 -10 -12 -7 -13 1 -11
-15 -27 -13 12 -28 15 8 -13
-1 -2 22 2 34 12 17 1
00000000: fb05 fe04 f7fb fef8 042e 102d 1b0b 142a
00000010: 262b 03ec 04f7 eff7 fdf9 fcef eaf8 fdfa
00000020: e900 f7fa f9f4 0204 f7fd fafc f51a 151b
00000030: 07fc 0d17 1b1b 170c 1f07 f206 1d04 1506
00000040: 0e0a 0507 0805 080a 0a08 fffd 0d02 0204
00000050: 050d 030a 04e9 fe08 fe0e f7fa f6f7 faf3
00000060: f5e5 f723 0321 090d 0a0c 0012 ff0d fc0a
00000070: 1208 19f0 13e1 f2d6 fc09 edea 01da 0b01
00000080: 0b01 ed06 1002 0cef 08fc 04fc f102 f503
00000090: fef6 fcf9 f4fc fdf6 fe22 0c1f 0df3 1124
000000a0: 1723 2203 1503 1914 2518 16e5 02e6 f914
000000b0: fcea 04ec fffd fd0a ff03 0308 fffc 1802
000000c0: f902 fef4 fe00 dd01 e4f7 0df5 e8e0 e914
000000d0: 1210 0c00 0e09 0204 fbf5 f2f7 f4f0 f1f9
000000e0: ff1f 0a17 06f3 0d16 0412 f6f4 f9f3 01f5
000000f0: f1e5 f30c e40f 08f3 fffe 1602 220c 1101

model.cls_head.classifier.2.weight_quantized i1 [47, 256, 1, 1]
-17 5 -8 2 23 26 -45 -16
-19 -34 -6 -23 23 11 -18 -11
10 -33 -8 -14 12 26 -21 13
-8 -4 1 3 9 -32 -35 16
-49 -12 17 8 11 -14 -4 7
3 -8 15 -38 -29 -8 -7 22
-44 -31 15 -21 -52 -19 -3 20
-30 -20 16 -14 -10 -41 -17 -35
-8 -37 3 19 18 -18 5 -11
-16 7 -20 -37 -3 -42 0 49
-7 1 -7 -16 -21 28 -25 8
10 -14 0 12 10 -14 -18 10
-18 -11 -15 -32 -5 1 -13 -11
9 -17 -12 0 5 -12 17 7
-21 10 -59 -13 14 19 22 -3
-22 -12 -28 6 -29 -22 -12 -17
-14 -37 -17 -40 -13 -27 -49 66
-15 -19 -18 -49 -42 -28 12 -30
-60 -20 19 -15 -15 -26 -2 14
-17 -27 -76 -59 -18 13 -7 -93
-4 -17 19 -9 -39 41 -1 39
-1 -53 -30 -2 -54 -7 -12 0
46 -30 -67 27 -7 -42 -6 5
-15 42 -51 -6 -7 -26 -76 -26
-2 -36 -42 22 11 -43 44 -26
-37 -20 -17 -47 -38 -34 -19 -45
-15 34 29 11 -55 15 -23 -8
-18 -46 -13 46 -4 -60 -19 -47
15 10 -60 -24 -49 3 32 -9
2 -35 -43 -59 -8 -33 5 -70
-27 -24 -33 -55 -43 -45 -46 -15
-46 21 3 -37 19 35 -26 -37
00000000: ef05 f802 171a d3f0 edde fae9 170b eef5
00000010: 0adf f8f2 0c1a eb0d f8fc 0103 09e0 dd10
00000020: cff4 1108 0bf2 fc07 03f8 0fda e3f8 f916
00000030: d4e1 0feb cced fd14 e2ec 10f2 f6d7 efdd
00000040: f8db 0313 12ee 05f5 f007 ecdb fdd6 0031
00000050: f901 f9f0 eb1c e708 0af2 000c 0af2 ee0a
00000060: eef5 f1e0 fb01 f3f5 09ef f400 05f4 1107
00000070: eb0a c5f3 0e13 16fd eaf4 e406 e3ea f4ef
00000080: f2db efd8 f3e5 cf42 f1ed eecf d6e4 0ce2
00000090: c4ec 13f1 f1e6 fe0e efe5 b4c5 ee0d f9a3
000000a0: fcef 13f7 d929 ff27 ffcb e2fe caf9 f400
000000b0: 2ee2 bd1b f9d6 fa05 f12a cdfa f9e6 b4e6
000000c0: fedc d616 0bd5 2ce6 dbec efd1 dade edd3
000000d0: f122 1d0b c90f e9f8 eed2 f32e fcc4 edd1
000000e0: 0f0a c4e8 cf03 20f7 02dd d5c5 f8df 05ba
000000f0: e5e8 dfc9 d5d3 d2f1 d215 03db 1323 e6db
